phishing_api/model/phishing_gnn_model.pt (torch, 97014 bytes, 6 tensors)

conv1.bias f4 [64]
0	0xbea7f155	-0.3280131
1	0x3dc154de	0.09440015
2	0xbd0f3699	-0.034964178
3	0xbc18a1e6	-0.009315943
4	0x3d206ab0	0.039164245
5	0xbd9247b0	-0.071425796
6	0x3d882f6d	0.06649671
7	0xbd74d61f	-0.059774514
8	0xbd879194	-0.06619564
9	0x3ca95f43	0.020675307
10	0xbd80437b	-0.06262871
11	0x3e832e07	0.25621054
12	0xbd8483df	-0.06470465
13	0xbd90abcb	-0.07064017
14	0x3d3db360	0.046313643
15	0xbe81e9a5	-0.2537357
16	0xbe1d8984	-0.1538449
17	0x3d5d144a	0.053974427
18	0xbd8a65ef	-0.067577235
19	0x3d50518e	0.050859027
20	0xbd4c76bb	-0.049917918
21	0x3c8c4f06	0.017127525
22	0xbd81a313	-0.06329932
23	0x3dc8579d	0.09782336
24	0xbd8a02ba	-0.06738801
25	0xbc6e6980	-0.01455152
26	0xbda9d508	-0.082925856
27	0xbdd11f65	-0.10211066
28	0xbe0c5854	-0.1370557
29	0xbd4ef4ae	-0.050526313
30	0xbd9101dc	-0.07080433
31	0xbc925b0b	-0.017865678
32	0xbd813c82	-0.06310369
33	0x3ceef3b0	0.029168934
34	0xbe1be9d6	-0.1522592
35	0x3d5d7b4d	0.054072667
36	0xbc3e95f4	-0.011632431
37	0xbd54d213	-0.051958155
38	0xbdafaaf0	-0.085775256
39	0x3d22dbbb	0.039760333
40	0x3d636fc4	0.05552651
41	0xbd7d979f	-0.061912175
42	0x3c92c4cd	0.017916108
43	0x3d98bc08	0.07457739
44	0xbe4f828c	-0.20264643
45	0xbd9048a2	-0.070451036
46	0xbea62a48	-0.32454133
47	0xbd9313e7	-0.071815304
48	0xbe81d4bb	-0.25357613
49	0xbd851a68	-0.06499177
50	0xbd65c061	-0.05609167
51	0x3d512f43	0.051070463
52	0x3c983344	0.018579133
53	0xbe9422d2	-0.28932816
54	0xbd8a0e64	-0.06741026
55	0xbd887704	-0.066633254
56	0x3ccb0093	0.024780547
57	0x3ce79c91	0.028272899
58	0x3e8bfdce	0.27342075
59	0x3e2a0d33	0.16606598
60	0x3d37c371	0.04486412
61	0xbde07068	-0.1095894
62	0x3d79b832	0.060966678
63	0x3d044c5c	0.032299384

conv1.lin.weight f4 [64, 300]
0	0xbefd0931	-0.49421075
1	0xbb011e59	-0.0019701927
2	0xbe3dd974	-0.18539983
3	0x3f33cac0	0.70231247
4	0xbf488c84	-0.7833941
5	0xbefd18b1	-0.494329
6	0x3bce3e4c	0.0062940475
7	0xbf30bc08	-0.6903691
8	0xbf87e5d5	-1.0617014
9	0xbe2bb693	-0.16768865
10	0xbf8956ce	-1.0729616
11	0xbf8ef972	-1.1169875
12	0x3f82d3a3	1.0220836
13	0xbfba782f	-1.4567927
14	0xbf38e249	-0.72220284
15	0xbf802b2d	-1.0013176
16	0xbf612fb3	-0.8796341
17	0xbfc83a4c	-1.5642791
18	0x3e85e373	0.26150092
19	0xbe976afb	-0.29573807
20	0xbf801be5	-1.0008513
21	0xbf8aa13a	-1.0830452
22	0xbf71c212	-0.9443675
23	0xbf17c432	-0.59283745
24	0xbed21495	-0.41031328
25	0xbf293d86	-0.661095
26	0xbf2c2b5f	-0.6725368
27	0xbc9fa416	-0.019487422
28	0xbf36f807	-0.7147221
29	0xbf3dfb98	-0.74212027
30	0xbf3de6bc	-0.741802
31	0xbf6e38d0	-0.9305544
32	0xbf1dd832	-0.6165801
33	0xbf315eb1	-0.6928511
34	0xbe827f9f	-0.25487992
35	0xbf832a50	-1.0247288
36	0xbe302d9d	-0.172049
37	0x3e77872b	0.24172656
38	0x3cd841b4	0.026398517
39	0xbf29fab0	-0.66398144
40	0xbe12ee12	-0.14348629
41	0xbe1f5505	-0.15559776
42	0xbf0bc449	-0.5459638
43	0xbf5e7ce8	-0.8690934
44	0xbfa4c547	-1.2872704
45	0xbf2fd5c0	-0.6868553
46	0xbf08600d	-0.5327156
47	0xbe9a99f3	-0.3019558
48	0xbf7f3e36	-0.997043
49	0xbf675b33	-0.90373534
50	0xbf38ef6e	-0.7224034
51	0x3f52cb66	0.8234161
52	0xbf6816e9	-0.9065996
53	0xbf5d81b1	-0.8652602
54	0xbee6fe32	-0.4511581
55	0xbdbb39bb	-0.091418706
56	0xbea0cef3	-0.3140789
57	0xbef32bec	-0.47494447
58	0xbfd4a745	-1.6613547
59	0xbf9e8556	-1.2384441
60	0xbf16823c	-0.5879247
61	0x3f174d1a	0.5910202
62	0xbf25f8a2	-0.6483251
63	0xbf667747	-0.9002575
64	0xbee30557	-0.4434001
65	0xbf5db7e3	-0.86608714
66	0xbf36331a	-0.71171725
67	0x3efd0762	0.49419695
68	0xbf58f386	-0.8474659
69	0xbf82669b	-1.0187563
70	0xbf3caaf7	-0.7369837
71	0x3d948bb6	0.0725321
72	0xbf17fd1b	-0.59370583
73	0xbf1e0621	-0.617281
74	0xbf7a602f	-0.97803015
75	0xbf1a4844	-0.6026652
76	0xbf54facd	-0.8319519
77	0xbf3f319f	-0.7468509
78	0xbe1bb957	-0.1520742
79	0xbf0993b1	-0.53740984
80	0xbd066b62	-0.032817252
81	0xbea06cb1	-0.31332925
82	0xbc231f50	-0.009956196
83	0xbf7850f4	-0.96998525
84	0xbe83637e	-0.25661844
85	0xbf29af17	-0.6628279
86	0xbfa0d90d	-1.2566239
87	0xbf7f1380	-0.9963913
88	0xbe573b42	-0.21018699
89	0x3f9cb787	1.2243508
90	0x402035cb	2.5032833
91	0xbf081732	-0.53160393
92	0xbed44498	-0.41458583
93	0xbf8a5c5f	-1.080944
94	0x3ef35ef0	0.4753337
95	0xbeefec8b	-0.46860155
96	0xbf4dbee2	-0.8036939
97	0xbf47654b	-0.77888936
98	0xbf239bd8	-0.63909674
99	0x3e061083	0.13092236
100	0xbeb2f490	-0.3495221
101	0xbf29faea	-0.6639849
102	0xbf7316d4	-0.9495671
103	0xbf523eeb	-0.82127255
104	0xbefb39dc	-0.4906758
105	0xbcb8db26	-0.022565436
106	0xba09de7f	-0.000525929
107	0xbf03c376	-0.51470125
108	0xbf185573	-0.59505385
109	0xbf6c4315	-0.9228986
110	0xbeb0e874	-0.34552348
111	0xbf299ef4	-0.6625817
112	0xbf0b88f7	-0.54505867
113	0x3f08db4e	0.5345963
114	0xbfab117f	-1.3364714
115	0xbf37f6e4	-0.718611
116	0xbf1ee918	-0.6207442
117	0xbf261640	-0.648777
118	0x3ecf2b54	0.40462744
119	0xbf885924	-1.0652204
120	0xbf612f8a	-0.87963164
121	0x3f8ee638	1.1164007
122	0x3e632968	0.22183764
123	0xbf5d0480	-0.8633499
124	0xbf84d44d	-1.0377289
125	0xbf3dd615	-0.7415479
126	0x40035255	2.0519001
127	0xbf52bd57	-0.8232016
128	0xbf6d717f	-0.92751306
129	0xbf2e2e24	-0.68039155
130	0xbf3bbe01	-0.733368
131	0xbeec114e	-0.46106952
132	0xbf780d81	-0.96895605
133	0x3cf107f5	0.02942274
134	0xbf5688b6	-0.83802354
135	0xbf632745	-0.88731796
136	0xbf0808dc	-0.5313852
137	0xbeeea7a0	-0.46612263
138	0xbf717dcf	-0.94332594
139	0x3fe6c781	1.8029634
140	0xbd8abb83	-0.06774046
141	0xbf983914	-1.1892419
142	0xbf5b0045	-0.85547286
143	0xbf800d29	-1.0004016
144	0xbe861152	-0.2618509
145	0xbec5c9bb	-0.3863047
146	0xbe1a5d77	-0.15074717
147	0xbeb424f1	-0.35184434
148	0xba82e3d6	-0.0009986113
149	0xbf963249	-1.1734096
150	0x404ed62f	3.2318227
151	0xbf8c139b	-1.0943483
152	0xbf1da94a	-0.6158644
153	0xbf1f8457	-0.6231131
154	0xbf36af1c	-0.71360946
155	0xbf1b6013	-0.6069347
156	0xbf49798a	-0.7870108
157	0x3cca5428	0.024698332
158	0xbf6d760a	-0.9275824
159	0xbf401ffc	-0.75048804
160	0x3db883a1	0.09009481
161	0xbe17af82	-0.14813045
162	0xbeb8fc2a	-0.36129886
163	0xbf74d72c	-0.95640826
164	0xbf55080d	-0.8321541
165	0xbee25f7f	-0.44213483
166	0xbf61c133	-0.88185424
167	0xbf835582	-1.026047
168	0x3dc8c039	0.098022886
169	0xbf6f7fbd	-0.9355429
170	0xbe87222b	-0.26393256
171	0xbf99a887	-1.2004555
172	0xbf4a7838	-0.7908969
173	0xbe90d1cb	-0.2828506
174	0xbe1d6f8a	-0.1537458
175	0xbf2df5aa	-0.6795298
176	0xbe02481d	-0.12722822
177	0xbe610e72	-0.21978167
178	0xbf560cfc	-0.8361356
179	0xbe8dbfa8	-0.27685285
180	0xbf0310e5	-0.51197654
181	0xbc7b65f6	-0.015344134
182	0x3eb6f9a5	0.3573734
183	0xbf2c2044	-0.67236733
184	0xbf1e9a06	-0.6195377
185	0xbe802378	-0.2502706
186	0xbf7724c5	-0.9654048
187	0xbf33bce5	-0.70210105
188	0xbe01bb4a	-0.12669101
189	0xbf791cb8	-0.97309446
190	0xbf39e7a5	-0.72619087
191	0xbf2dbdfe	-0.6786803
192	0xbf3ffe98	-0.74997854
193	0xbf0ae9a4	-0.5426276
194	0xbee1ae0d	-0.44078103
195	0xbf333712	-0.70005906
196	0xbf268778	-0.6505046
197	0xbf63c472	-0.88971627
198	0x3ea63105	0.32459274
199	0xbf1245c1	-0.57137686
200	0xbf600900	-0.8751373
201	0xbe2e0aac	-0.16996258
202	0xbeb7caf2	-0.35897022
203	0x3d75167d	0.0598359
204	0xbf81b757	-1.0134076
205	0xbf00a70e	-0.50254905
206	0xbf863956	-1.0486248
207	0xbf7add3e	-0.9799384
208	0xbf046bcc	-0.51726985
209	0xbebc822f	-0.36818072
210	0xbf16bdc3	-0.58883303
211	0xbf970389	-1.1797954
212	0xbfcfa0b8	-1.6220922
213	0xbf5505c2	-0.8321191
214	0xbf72b237	-0.94803184
215	0xbec17702	-0.37786108
216	0xbf57bcb2	-0.842723
217	0xbfa82e36	-1.3139102
218	0xbda05d18	-0.07830256
219	0xbf253d52	-0.6454669
220	0xbc3073d8	-0.010769807
221	0xbf2a4f08	-0.6652684
222	0xbe3600af	-0.17773698
223	0xbf21398b	-0.6297843
224	0xbf90ec84	-1.1322179
225	0xbde7d0b2	-0.11319102
226	0xbdbc4043	-0.091919445
227	0xbfb739e0	-1.4314537
228	0xbd8eee03	-0.06978991
229	0xbf0bf5ab	-0.54671735
230	0xbeed2385	-0.46316162
231	0xbe24884c	-0.16067618
232	0xbf421aca	-0.75822127
233	0xbf0316ff	-0.51206964
234	0xbfa9bfee	-1.3261697
235	0xbf9e48fc	-1.2366023
236	0xbf082050	-0.53174305
237	0xbf892d54	-1.0716958
238	0xbf29bfc3	-0.6630823
239	0x3f2c5718	0.67320395
240	0xbef760cd	-0.4831604
241	0xbf3baf43	-0.73314303
242	0xbf38eadf	-0.72233385
243	0xbfaa13ec	-1.328733
244	0xbf048974	-0.51772237
245	0xbf6837cb	-0.90710133
246	0xbe781db4	-0.24230081
247	0xbeb60ec4	-0.3555814
248	0xbf78994f	-0.9710893
249	0xbf8731cc	-1.0562072
250	0xbec98121	-0.3935633
251	0xbe5394e7	-0.2066227
252	0xbf3ffe21	-0.74997145
253	0xbf822592	-1.0167716
254	0xbf2a3dee	-0.6650075
255	0xbf476a18	-0.7789626

conv2.bias f4 [64]
0	0xbdc189cf	-0.09450113
1	0x3c1de5a1	0.009637267
2	0xbd00264b	-0.03128652
3	0xbd857330	-0.06516111
4	0x3eee887a	0.46588498
5	0x3ecb90cd	0.39758912
6	0x3e6386a1	0.22219326
7	0xbdb9df04	-0.0907574
8	0xbd797ba4	-0.06090893
9	0xbd8551a8	-0.06509715
10	0x3f0f8307	0.56059307
11	0xbd75fc27	-0.060054924
12	0x3f37fd9d	0.7187136
13	0x3f2a2442	0.66461575
14	0xbd75f8f9	-0.060051892
15	0x3e2d8dbd	0.169486
16	0x3ecbd0ce	0.39807743
17	0x3ee19c76	0.44064683
18	0xbd75fc3a	-0.060054995
19	0x3f260a8f	0.6485986
20	0x3dfc728c	0.123265356
21	0x3e7e4e9d	0.24834676
22	0x3f2dffc0	0.6796837
23	0x3ef585e7	0.47953722
24	0x3e853500	0.26016998
25	0xbdddfb45	-0.108389415
26	0x3f308a97	0.6896147
27	0xbd75fc36	-0.06005498
28	0xbd7aec25	-0.06126036
29	0x3f817a80	1.0115509
30	0xbda06727	-0.07832175
31	0xbd75fc2d	-0.060054947
32	0x3f2a53c3	0.6653406
33	0x3f49d427	0.78839344
34	0x3eeddd13	0.4645773
35	0x3f274361	0.6533719
36	0xbd75fb70	-0.060054243
37	0xbd75fb96	-0.060054384
38	0x3ec9f6f6	0.3944623
39	0x3e1e0795	0.1543258
40	0x3f015791	0.5052424
41	0x3f28975f	0.65855974
42	0x3f1ccf24	0.6125357
43	0xbea25530	-0.31705618
44	0x3efc0a62	0.4922667
45	0xbf203e01	-0.6259461
46	0x3f262aa9	0.64908844
47	0x3efb3ddd	0.49070635
48	0x3e875310	0.2643056
49	0x3f310e4a	0.6916243
50	0x3ee3a911	0.44464925
51	0xbefea7f3	-0.4973751
52	0xbebbbf1a	-0.36669236
53	0xbe9ec602	-0.31010443
54	0x3f027e1c	0.5097368
55	0xbe3e0600	-0.18556976
56	0xbf4afca2	-0.7929174
57	0xbd8c87b5	-0.068618216
58	0xbecbabd7	-0.3977954
59	0xbed8e42a	-0.42361575
60	0xbdb1fbc0	-0.086905956
61	0xbd4b0077	-0.04956099
62	0x3f2c2eee	0.6725911
63	0x3f26dbae	0.65178955

conv2.lin.weight f4 [64, 64]
0	0xbe38d9e4	-0.18051869
1	0x3e8309de	0.25593466
2	0xbe41a79e	-0.18911597
3	0xbd68bd3a	-0.056821086
4	0xbe84c534	-0.25931704
5	0xbe0cc86c	-0.1374833
6	0xbdcdd64b	-0.10050639
7	0xbda76c18	-0.08174914
8	0x3d7dcaba	0.061960913
9	0xbd8690b9	-0.065705724
10	0xbe1a5ad9	-0.15073718
11	0xbed70171	-0.41993287
12	0x3e7704f3	0.24122982
13	0xbdaebe7a	-0.08532424
14	0xbe577396	-0.21040186
15	0x3b860b31	0.0040906896
16	0x3cafa97a	0.021443117
17	0xbdd5b0fe	-0.10434149
18	0x3e337536	0.17525181
19	0xbec9c312	-0.3940664
20	0xbe09fc2f	-0.13475107
21	0xbe35284a	-0.1769115
22	0xbd7d4cff	-0.061841007
23	0xbe10ae0e	-0.14128897
24	0xbcac3bac	-0.021024548
25	0xbde5eded	-0.11227021
26	0xbe349ab4	-0.1763714
27	0x3dceaaf1	0.10091198
28	0xbe3b04a9	-0.18263496
29	0xbe219b7e	-0.15781972
30	0xbd5b2b45	-0.053508062
31	0xbec09449	-0.37613133
32	0xbdf1a386	-0.11798768
33	0xbdd89338	-0.10574955
34	0xbd3ffb0e	-0.046870284
35	0xbe4e94a9	-0.20173897
36	0xbdd16f16	-0.10226266
37	0xbdb9f859	-0.09080572
38	0x3e0c7a42	0.13718513
39	0xbed045e2	-0.40678316
40	0x3da5466b	0.08070072
41	0xbe485bd4	-0.1956628
42	0xbd4762ce	-0.048678212
43	0xbb9020f9	-0.004398462
44	0x3e2fa961	0.17154457
45	0xbe8eb898	-0.2787521
46	0xbe2a5bcd	-0.16636582
47	0x3e1a0813	0.15042143
48	0xbc018d15	-0.007907172
49	0xbd9eb4c9	-0.07749326
50	0x3d241a2e	0.04006403
51	0xbebdf4da	-0.3710087
52	0xbd8ec502	-0.0697117
53	0xbdbff356	-0.093725845
54	0x3c51b4fd	0.012799499
55	0xbdaf7ca3	-0.085686944
56	0xbeb16ed6	-0.34654874
57	0x3c67a091	0.014137403
58	0xbeef993d	-0.467966
59	0xbed04848	-0.40680146
60	0xbe227757	-0.15865837
61	0xbe12d02c	-0.14337224
62	0xbddb82a4	-0.10718277
63	0xbdb09096	-0.086213276
64	0xbf1b6842	-0.6070596
65	0xbf5fd41c	-0.8743303
66	0xc034e17e	-2.826263
67	0xbf94daed	-1.1629311
68	0xbe505456	-0.20344672
69	0x3e0981c0	0.13428402
70	0xbe62aa9f	-0.221354
71	0x3e2cafc3	0.16863923
72	0x3e6829c7	0.22672187
73	0xbe69a413	-0.22816496
74	0xbc5bb93c	-0.013410863
75	0x3f02f348	0.5115247
76	0x3cdcf654	0.026972927
77	0xbdfcabaf	-0.123374335
78	0xbdc775f5	-0.097392954
79	0x3da33c82	0.07970525
80	0x3c0a2df5	0.008433809
81	0xbec211e5	-0.37904277
82	0x3e46da7e	0.19419286
83	0xbe0d7919	-0.13815726
84	0x3f8847c5	1.0646902
85	0xbdf8f41d	-0.12155936
86	0xbd990d25	-0.0747321
87	0xbef924c8	-0.48660874
88	0xbe0a251a	-0.13490716
89	0xbfa634b7	-1.2984837
90	0x3e31482a	0.17312685
91	0xbdf53c11	-0.119743474
92	0xbdddcb0f	-0.10829746
93	0xbfa193dc	-1.2623248
94	0x3c9272ee	0.017877068
95	0xbfc1bc0b	-1.5135511
96	0x3e476b35	0.1947449
97	0x3d8aa4e1	0.067697294
98	0x3e5ed6f6	0.21761689
99	0xbf18442c	-0.5947902
100	0x3dde3628	0.10850173
101	0xbf0681e2	-0.52541935
102	0xbd8d26cf	-0.06892168
103	0xbe4ef810	-0.20211816
104	0xbebdf9c7	-0.37104627
105	0x3cd3a1e8	0.025834039
106	0xc0283e17	-2.6287897
107	0xbee201f6	-0.4414212
108	0xbd7f1e87	-0.062284973
109	0xbaa1b95d	-0.0012338568
110	0x4069772e	3.6478992
111	0xbe4ec6d3	-0.20193033
112	0x3de9ad77	0.11410039
113	0x3df54d63	0.11977651
114	0xbf975fb2	-1.1826079
115	0xbe28f31a	-0.16498986
116	0xbd2f66bf	-0.042822596
117	0x3e09ad32	0.13444975
118	0x3e12eb3e	0.1434755
119	0x3ded71f7	0.11594003
120	0xbd86fd5f	-0.065912955
121	0x3ce020f1	0.027359458
122	0x3f3ce6a1	0.7378941
123	0xbf59839e	-0.84966457
124	0x3cd6e3d2	0.02623168
125	0xbfa2c330	-1.2715816
126	0xbe705450	-0.23469663
127	0x3d4f99c9	0.05068377
128	0xbe209e93	-0.15685491
129	0xbc6d7034	-0.014492083
130	0xbe63d7a3	-0.22250228
131	0x3c09e363	0.00841603
132	0xbe4b0495	-0.19825967
133	0x3d7b6d1c	0.06138335
134	0xbd370a0a	-0.04468731
135	0xbcf8c9f5	-0.030369738
136	0x3e00918b	0.1255552
137	0x3dfe6e5d	0.12423394
138	0xbdcf600e	-0.10125743
139	0xbec95e81	-0.39329913
140	0xbdc41a1f	-0.09575295
141	0x3e47fd70	0.19530272
142	0x3da281cc	0.07934913
143	0xbcdefed5	-0.027221123
144	0xbddf0d7c	-0.10891244
145	0x3e34cd57	0.17656456
146	0x3e2c8c97	0.16850506
147	0xbc717799	-0.014737987
148	0xbe019e99	-0.12658156
149	0xbe2f4c19	-0.17118873
150	0x3d817507	0.06321149
151	0xbd37de99	-0.04489002
152	0x3e433de9	0.19066586
153	0x3d4c4d65	0.049878497
154	0xbe3d579f	-0.18490456
155	0x3dddaaa4	0.10823563
156	0x3d87437d	0.06604669
157	0xbd74359c	-0.05962144
158	0x3c6078f6	0.013700714
159	0xbbacbfe8	-0.0052719004
160	0xbd56fcd5	-0.052487213
161	0x3dd240b5	0.10266248
162	0x3e625a0f	0.22104667
163	0xbe3448b9	-0.17605866
164	0xbe6d0743	-0.23147301
165	0xbcc31114	-0.023811854
166	0x3e07995a	0.13242093
167	0xbe0339fd	-0.1281509
168	0xbe746e42	-0.23870185
169	0x3d5cd7ce	0.053916745
170	0xbdbd0c94	-0.09230915
171	0xbe4872e1	-0.19575073
172	0x3e30a8b5	0.17251857
173	0xbd2d5b3c	-0.042323336
174	0xbe8147b2	-0.25250012
175	0x3d514bac	0.051097557
176	0x3e944eab	0.2896627
177	0x3e44ed0b	0.1923105
178	0xbc036073	-0.008018601
179	0xbacf161d	-0.0015799437
180	0xbc3f59f1	-0.011679159
181	0xbe975223	-0.29554853
182	0x3e44b8e6	0.19211158
183	0x3d31b0e4	0.043381587
184	0xbe16c90f	-0.14725135
185	0xbca9a796	-0.020709794
186	0xbeafe6e1	-0.34355834
187	0xbd5789ae	-0.052621536
188	0x3cd97b6a	0.026548106
189	0xbdbebf2d	-0.09313808
190	0xbe64f9db	-0.22360937
191	0xbe558cf9	-0.20854558
192	0xbe130df7	-0.14360796
193	0xbd8284dc	-0.06372997
194	0xbce9f9cc	-0.028561495
195	0x3de1dd95	0.110285915
196	0x391aee04	0.00014775252
197	0x3ddb09fa	0.10695262
198	0xbe30efa6	-0.17278919
199	0xbd90de99	-0.07073707
200	0xbe33ac45	-0.17546184
201	0xb9a6163d	-0.00031678556
202	0x3e4fa9c6	0.20279607
203	0xbe0c98c6	-0.13730153
204	0xbdc51576	-0.09623234
205	0xbe5ad345	-0.21369655
206	0xbe4530f8	-0.19256961
207	0xbca1bc11	-0.019742997
208	0xbe3d467d	-0.1848392
209	0x3c921a7a	0.01783489
210	0x3db37e6e	0.08764349
211	0xbe054a96	-0.13016734
212	0xbce63e55	-0.028105894
213	0x3d068447	0.032840993
214	0xbcdd21bc	-0.026993625
215	0xbe0becff	-0.13664626
216	0xbdec95d7	-0.11552017
217	0xbe0720d6	-0.1319612
218	0x3e0a0a20	0.13480425
219	0x3dd6d283	0.10489371
220	0xbc741eb1	-0.0148998955
221	0xbca40543	-0.02002204
222	0x3e4c467a	0.1994876
223	0xbd07eb4a	-0.033183374
224	0xbe2dd5f7	-0.16976152
225	0xbd56a64a	-0.05240468
226	0x3daf15f4	0.08549109
227	0xbe1dbbe8	-0.15403712
228	0xbe57f404	-0.21089178
229	0x3db5d259	0.08878011
230	0x3cf75f99	0.030196952
231	0xbe065c74	-0.13121206
232	0xbe0ae4b2	-0.13563803
233	0xbe5af684	-0.21383101
234	0xbe3b2d47	-0.1827899
235	0xbd4d0c90	-0.05006081
236	0xbe14273a	-0.14468089
237	0xbe7a7467	-0.24458466
238	0xbc423154	-0.011852581
239	0x3dcb11bf	0.09915494
240	0xbe8bb5bf	-0.272871
241	0x3d80693e	0.06270073
242	0xbe50e271	-0.2039888
243	0xbdac615f	-0.084170096
244	0x3d6970ea	0.05699245
245	0xbc61cd79	-0.013781899
246	0x3c8a30c8	0.016868964
247	0xbdf024ff	-0.117258064
248	0x3df07ac9	0.117421694
249	0xbd89bf42	-0.06725933
250	0xbee3e210	-0.4450841
251	0xbe8ff64c	-0.28117597
252	0xbe045c55	-0.12925847
253	0xbe7975fb	-0.24361412
254	0xbdd45ce4	-0.1036928
255	0xbdab138b	-0.08353337

fc.weight f4 [2, 64]
0	0x3d82ce28	0.063869774
1	0xbe72c37f	-0.23707388
2	0x3d9fcd83	0.0780287
3	0xbdb9fdda	-0.090816215
4	0x3ec27faa	0.37988025
5	0x3eb42802	0.35186774
6	0xbec101c9	-0.37696674
7	0x3df9bd2e	0.12194286
8	0x3d36e8dd	0.04465567
9	0x3e104f40	0.14092731
10	0x3f8c535e	1.0962942
11	0xbcaa44a9	-0.020784693
12	0x3fde0c9a	1.7347596
13	0x3fc5c60b	1.5451063
14	0xbc813ea5	-0.015776942
15	0xbead7085	-0.33874908
16	0x3e1afb63	0.15134959
17	0x3ee28f1b	0.44249806
18	0xbd4831a4	-0.048875466
19	0x3fa5af2f	1.2944087
20	0xbe9d6907	-0.30744192
21	0xbf002fcc	-0.5007293
22	0xc0583af7	-3.378599
23	0x3e9222f1	0.28542283
24	0xbf1aa049	-0.60400826
25	0x3cbe4ca8	0.023229912
26	0x3fc29561	1.5201837
27	0xbc8e1d40	-0.017347932
28	0x3c3d54a2	0.011555823
29	0xc0b95fde	-5.7929525
30	0x3c394fe4	0.011310551
31	0x3c999fba	0.018752921
32	0x3f98c951	1.1936437
33	0x3ffea681	1.9894563
34	0x3e9b8f76	0.3038289
35	0x3fad5656	1.3541973
36	0x3d65895a	0.05603919
37	0xbd2891c5	-0.04115464
38	0x3ead9368	0.33901525
39	0xbedab51b	-0.42716298
40	0x3ee5d734	0.4489075
41	0x3fc9fe10	1.5780659
42	0x3fa60efc	1.2973323
43	0xbe6dc189	-0.23218359
44	0x3e9cbd60	0.30613232
45	0xbe98c144	-0.2983495
46	0x3fa0623f	1.2529982
47	0x3f131feb	0.5747058
48	0xbfcbaeca	-1.5912716
49	0x3fc8b8cd	1.5681397
50	0x3ef76889	0.48321941
51	0xbeab2d26	-0.33432883
52	0x3d36708e	0.044540934
53	0x3de741bf	0.11291837
54	0x3eda593c	0.42646205
55	0xbf80f4d0	-1.0074711
56	0xbfaeeb5e	-1.3665578
57	0xbd4f5cbc	-0.050625548
58	0x3ede7106	0.43445605
59	0x3cb3682d	0.02190026
60	0x3e15a7a6	0.14614734
61	0xbe1e4ac0	-0.15458202
62	0x3fb07d71	1.3788282
63	0x3fd99e29	1.7001392
64	0x3c718500	0.014741182
65	0x3ea6ce66	0.32579345
66	0x3df994dd	0.121865965
67	0xbd7bdfa1	-0.061492566
68	0xbeb1cb60	-0.34725475
69	0xbe931ea3	-0.2873431
70	0x3f02bbb7	0.5106768
71	0xbe26d930	-0.16293788
72	0x3c0805b0	0.008302137
73	0x3d5dd084	0.054153934
74	0xbf870592	-1.0548575
75	0x3ac2d817	0.0014865425
76	0xbfce0af3	-1.6097091
77	0xbfcffad7	-1.6248425
78	0xbd5166af	-0.051123317
79	0x3e03a97b	0.1285762
80	0xbe891103	-0.2677079
81	0xbeb1c829	-0.34723023
82	0xbca015ca	-0.01954164
83	0xbfaa3cca	-1.3299801
84	0x3eca8471	0.3955417
85	0x3f1bfd22	0.60933125
86	0x4049a30c	3.1505766
87	0xbec49e48	-0.3840201
88	0x3f192955	0.5982869
89	0xbd1fea2c	-0.039041683
90	0xbfab0efc	-1.3363948
91	0xbcb87e15	-0.022521058
92	0x3d4889a2	0.048959382
93	0x40bb0056	5.843791
94	0xbd82ee79	-0.06393141
95	0xbccbfd91	-0.024901183
96	0xbf9b8cc7	-1.2152337
97	0xbfff05e3	-1.9923671
98	0xbea8e2da	-0.32985574
99	0xbfb32dae	-1.3998315
100	0xbd36f15b	-0.04466377
101	0xbe120abf	-0.14261912
102	0xbeb2134d	-0.3478035
103	0x3ea7d6ea	0.32781154
104	0xbeed7a17	-0.4638221
105	0xbfc70b29	-1.5550281
106	0xbfbbe600	-1.4679565
107	0x3e35415f	0.17700718
108	0xbeeb77ae	-0.45989746
109	0x3e984de3	0.29746923
110	0xbfb6384e	-1.4235933
111	0xbeda0ae4	-0.42586434
112	0x3fc373ce	1.5269716
113	0xbfcd7de0	-1.6054039
114	0xbec458c8	-0.38348985
115	0x3dfcd214	0.12344757
116	0xbd6d3432	-0.057911105
117	0xbe404bea	-0.18778959
118	0xbeda480c	-0.42633092
119	0x3f9eeb1b	1.2415498
120	0x3fb05f74	1.377913
121	0xbd29b16d	-0.041428972
122	0xbecd5e79	-0.4011114
123	0xbaa680bb	-0.001270316
124	0x3d319009	0.043350253
125	0xbd1dbcb1	-0.03851003
126	0xbfba8b3a	-1.4573739
127	0xbfddf316	-1.7339809

fc.bias f4 [2]
0	0x3f1b1540	0.605793
1	0xbf3eaa4a	-0.7447859
